test_MNIST/mnist_deblur_model.pth (torch, 2536 bytes, 3 tensors)

layers.0.weight f4 [4, 1, 3, 3]
0	0x3e49385d	0.19650407
1	0xbda40f8b	-0.08010777
2	0x3d186c91	0.037212912
3	0x3dceec06	0.10103612
4	0x3e969f90	0.29418612
5	0xbe67fbb0	-0.22654605
6	0x3dbcf923	0.092272066
7	0x3b158cf4	0.002281961
8	0x3ecc8fbd	0.39953414
9	0x3eac7701	0.33684543
10	0x3dd0e998	0.102008045
11	0xbd2efb61	-0.042720202
12	0x3eafdf5e	0.34350103
13	0xbe9a70cd	-0.30164185
14	0x3e6d2e1e	0.23162124
15	0x3dd6e63b	0.10493132
16	0xbdc1f394	-0.09470287
17	0x3efe6e2b	0.49693426
18	0xbdcecfac	-0.10098204
19	0xbde861a6	-0.1134675
20	0xbe171418	-0.14753759
21	0x3db92ad0	0.09041369
22	0xbe8deb7c	-0.27718723
23	0xbe0509e8	-0.1299206
24	0xbe2a9d43	-0.16661553
25	0x3dc0bbac	0.094107956
26	0x3e05fb22	0.13084081
27	0x3e8c97f8	0.27459693
28	0xbe64e5dd	-0.22353311
29	0x3ec73482	0.38907248
30	0xbd2404f1	-0.040043775
31	0xbed29213	-0.4112707
32	0xbcec3830	-0.028835386
33	0xbee67798	-0.45013118
34	0x3cdbaf51	0.026816996
35	0x3e201537	0.15633093

layers.0.bias f4 [4]
0	0xbea1c7c5	-0.31597725
1	0x3d75ea5f	0.060037967
2	0xbe89b8cb	-0.26898798
3	0x3cc13dfc	0.023589127

layers.2.weight f4 [1, 4, 3, 3]
0	0xbe7ddae3	-0.2479053
1	0x3cc1e9cc	0.023671053
2	0xbd7e3cda	-0.06206975
3	0xbe05fa1b	-0.13083689
4	0xbda41fcb	-0.080138765
5	0xbcad2022	-0.021133486
6	0xbddaa09d	-0.10675166
7	0xbd29f5b4	-0.041494086
8	0xbe8651b2	-0.26234204
9	0x3e8c073f	0.27349278
10	0xbd2c2130	-0.042023838
11	0x3e597ef3	0.21239834
12	0x3d467640	0.048452616
13	0xbe2bfe48	-0.1679622
14	0xbd81e226	-0.063419625
15	0x3e6b44fd	0.22975536
16	0x3db9d03b	0.0907292
17	0x3e8952a4	0.26820862
18	0xbe252144	-0.16125971
19	0xbc9d3560	-0.01919049
20	0xbe226d58	-0.15862024
21	0x3dcfd8aa	0.10148747
22	0xbe134eea	-0.14385572
23	0x3e101d4b	0.14073674
24	0xbc895c68	-0.016767696
25	0xbc967398	-0.018365666
26	0x3e1c0ec1	0.15240003
27	0x3ceb2f9a	0.028709222
28	0x3e75c641	0.24001409
29	0x3ede498b	0.43415484
30	0xbdc46a9d	-0.09590647
31	0xbbb0acd3	-0.005391696
32	0x3dbbfc5f	0.09178995
33	0xbe2b5fcd	-0.16735764
34	0xbd49a255	-0.049227078
35	0x3da82d2e	0.08211742
