test_MNIST/optimized_mnist_deblur.pth (torch, 103514 bytes, 17 tensors)

conv1.0.weight f4 [32, 1, 3, 3]
0	0x3d61f59d	0.055165876
1	0x3d419617	0.047262277
2	0x3e940ec5	0.28917518
3	0xbdd46f87	-0.10372835
4	0xbe9b112a	-0.30286533
5	0x3e81dee6	0.2536537
6	0x3e1c0081	0.15234567
7	0x3d2468c9	0.040138993
8	0x3e8d52d9	0.2760227
9	0x3e41bb50	0.1891911
10	0x3e6391da	0.22223607
11	0x3dea6177	0.11444371
12	0xbea65e75	-0.3249394
13	0xbe9cbbc1	-0.30611995
14	0xbeb6cb69	-0.35702065
15	0x3e8005c5	0.25004402
16	0xbd3c3599	-0.045949552
17	0x3ea6635f	0.3249769
18	0xbe6a2130	-0.22864223
19	0x3eb2dd58	0.34934497
20	0xbe0bdbc9	-0.1365806
21	0xbd6d3030	-0.057907283
22	0x3e7695e1	0.24080612
23	0xbdebed72	-0.115198985
24	0xbe86e91e	-0.2634973
25	0x3e14aa54	0.145181
26	0xbea4900c	-0.3214115
27	0xbece6e1f	-0.4031839
28	0xbe82cd36	-0.2554719
29	0x3e2da861	0.16958763
30	0x3db85685	0.09000877
31	0x3d5efc75	0.05443998
32	0x3e950649	0.29106358
33	0x3d894cad	0.06704078
34	0xbe54ed92	-0.20793751
35	0x3e823844	0.25433552
36	0x3e14eb93	0.1454299
37	0x3dcfc0ac	0.10144171
38	0xbedcd9fe	-0.43135065
39	0xbe226db6	-0.15862164
40	0x3e97dd30	0.2966094
41	0x3ca7fa6b	0.02050515
42	0x3da7f1ff	0.08200454
43	0x3ce9ca14	0.028538741
44	0xbe3f6d69	-0.1869408
45	0xbea1fc30	-0.31637716
46	0x3e76d4b8	0.24104583
47	0xbc0a71e3	-0.008450004
48	0x3e205de4	0.15660816
49	0x3e129b84	0.14317137
50	0x3e9a50cc	0.30139768
51	0xbe8b38a8	-0.27191663
52	0xbd0c4fdf	-0.03425586
53	0xbe4b4041	-0.1984873
54	0xbe721a7b	-0.23642914
55	0x3de884dd	0.11353467
56	0xbe3735a8	-0.17891562
57	0x3e104fb2	0.14092901
58	0xbcceed20	-0.025259554
59	0x3ea85010	0.32873583
60	0xbe6393d6	-0.22224364
61	0x3e92c8e7	0.286689
62	0xbec342ef	-0.38137004
63	0x3d4cf015	0.050033648
64	0xbcbaac5c	-0.022787265
65	0xbeaf2295	-0.34206071
66	0xbe942b39	-0.28939226
67	0x3c2845d5	0.0102705555
68	0xbe3e1da5	-0.18565996
69	0x3e233b5e	0.15940616
70	0xbdf5c835	-0.12001077
71	0xbeb593c7	-0.35464308
72	0x3d493f62	0.049132712
73	0xbdc1e98e	-0.09468375
74	0xbeba21d2	-0.36353928
75	0xbe28ea33	-0.1649559
76	0xbe9c2344	-0.30495656
77	0xbe5cd0f9	-0.21564092
78	0x3e898a1d	0.26863185
79	0x3d086173	0.03329606
80	0xbe2d13b2	-0.16902044
81	0x3c346c5d	0.011012164
82	0xbe27957e	-0.1636562
83	0xbbac1ce0	-0.0052524656
84	0xbe547a1e	-0.20749709
85	0xbeb322df	-0.34987542
86	0xbec203b9	-0.37893465
87	0x3de041c8	0.10950047
88	0x3d277009	0.04087833
89	0x3d8f353a	0.06992574
90	0xbd45c452	-0.04828293
91	0xbe49ad32	-0.19694975
92	0xbe95ef11	-0.29283956
93	0xbd572525	-0.05252566
94	0x3ec89e6f	0.39183375
95	0x3e4e4bd9	0.20146121
96	0xbe58d833	-0.21176223
97	0xba8550dc	-0.0010171193
98	0x3dc610fe	0.0967121
99	0xbe8a91a9	-0.27064255
100	0xbe2a8c5c	-0.16655105
101	0xbbc1f7af	-0.0059194188
102	0xbdb9c01e	-0.090698466
103	0x3e0533ec	0.13008088
104	0x3d9d09ee	0.076679096
105	0xbe969add	-0.29415026
106	0x3df042f2	0.11731519
107	0xbea66431	-0.32498315
108	0x3e8dfe8b	0.27733263
109	0xbe3def53	-0.18548326
110	0xbdffa504	-0.12482646
111	0xbec394fa	-0.38199598
112	0xbe9700c1	-0.29492763
113	0x3e3378f5	0.1752661
114	0x3ea3824c	0.31935346
115	0x3dfddde3	0.12395837
116	0x3e677fb6	0.22607312
117	0xbec71a8d	-0.38887444
118	0x3e162c42	0.1466532
119	0xbed43caf	-0.41452548
120	0xbe805f9f	-0.25072953
121	0xbd679c87	-0.05654576
122	0x3d9e0332	0.07715453
123	0x3ec7db40	0.39034462
124	0x3e887b96	0.2665679
125	0xbda5782a	-0.0807956
126	0xbe688e24	-0.22710472
127	0xbea634f4	-0.32462275
128	0x3e0b6edc	0.13616508
129	0x3dc8b454	0.0980002
130	0xbd8087f4	-0.06275931
131	0xbe4613cc	-0.1934349
132	0x3df75ec5	0.12078623
133	0x3e308553	0.17238359
134	0xbe9a4834	-0.30133212
135	0x3e964302	0.29347998
136	0xbe8a3345	-0.2699224
137	0x3e9cc713	0.30620632
138	0xbcdd1513	-0.026987588
139	0xbd304af1	-0.04304022
140	0xbdbf4acc	-0.09340438
141	0x3e19fbbb	0.15037434
142	0xbe8336a2	-0.2562762
143	0x3e2f0cb4	0.1709469
144	0xbf0a99c6	-0.5414089
145	0xbe1d4335	-0.15357669
146	0x3e2749cd	0.16336747
147	0x3d578bd2	0.052623577
148	0x3def1c21	0.11675287
149	0x3d9ed132	0.077547446
150	0xbec1889b	-0.37799534
151	0x3cb1908b	0.021675369
152	0x3e927ee6	0.2861244
153	0x3e21cc2f	0.15800546
154	0xbe64cb05	-0.22343071
155	0xbe6ab7b0	-0.22921634
156	0xbd6c736d	-0.057727266
157	0xbe8fc24a	-0.28077918
158	0xbeb35432	-0.35025173
159	0x3d849c88	0.064751685
160	0xbe28dbbe	-0.16490075
161	0x3e45420f	0.1926348
162	0x3c0bba1d	0.00852826
163	0xbb288344	-0.0025713006
164	0xbe62536e	-0.22102138
165	0x3d6938b4	0.056938842
166	0x3e3d9390	0.18513322
167	0x3dcdc01d	0.10046408
168	0x3e892c88	0.26791787
169	0x3cc41107	0.0239339
170	0xbe36e863	-0.17862086
171	0x3d834957	0.06410473
172	0xbe8ea950	-0.2786355
173	0x3dd0f1ff	0.10202407
174	0xbd54753f	-0.051869627
175	0xbe1c5261	-0.152658
176	0xbde981c6	-0.114017054
177	0x3ed55c09	0.4167178
178	0x3e640d2b	0.22270648
179	0xbe1b692a	-0.15176836
180	0x3d73fbd0	0.05956632
181	0xbe540a10	-0.20706964
182	0x3e4f5a40	0.20249271
183	0x3decdb99	0.115653224
184	0xbe5e6637	-0.2171868
185	0xbb0688ce	-0.002052832
186	0x3e33c167	0.17554246
187	0xbe3e647c	-0.18593019
188	0xbd0e2a3f	-0.034708258
189	0x3dbf9b36	0.09355776
190	0x3e78219f	0.24231575
191	0x3cbea5a6	0.023272347
192	0xbe55adb6	-0.20867047
193	0xbc8e9b86	-0.017408144
194	0x3e0563aa	0.130263
195	0xbebb5b13	-0.36592922
196	0xbe4a97cf	-0.19784473
197	0x3e3cd706	0.184414
198	0xbe44f5cd	-0.1923439
199	0x3bf81761	0.0075711464
200	0xbecc4de4	-0.39903176
201	0x3e8579e1	0.2606955
202	0xbe249e60	-0.1607604
203	0x3e35d96b	0.1775872
204	0x3e02b4fd	0.12764354
205	0x3d3e08e7	0.04639521
206	0x3e5b3b97	0.2140945
207	0xbfc5b38c	-1.5445418
208	0xbdb75e94	-0.08953586
209	0x3ca43fa6	0.020049881
210	0xbc62b45b	-0.013836945
211	0x3d17d6d2	0.037070103
212	0x3c6db824	0.014509235
213	0xbf781be5	-0.96917564
214	0xbc50e6e7	-0.012750364
215	0xbc0aa7ce	-0.008462859
216	0xbe65e419	-0.22450294
217	0xbe9cdf8d	-0.30639306
218	0x3dc56145	0.09637693
219	0x3df26758	0.118361175
220	0x3d24b98b	0.04021601
221	0xbdd451af	-0.103671424
222	0xbe88e22f	-0.26735064
223	0xbe2aedd8	-0.16692293
224	0x3c9b388c	0.018947862
225	0x3cf06dee	0.029349294
226	0x3da41351	0.08011497
227	0xbdd7b163	-0.10531881
228	0xbdf3a984	-0.11897567
229	0x3dbdf6c2	0.09275581
230	0xbd204e9e	-0.039137475
231	0x3c74d2ea	0.014942864
232	0xbf026715	-0.5093854
233	0xc05659eb	-3.3492382
234	0x3d92f079	0.07174773
235	0x3d237522	0.03990663
236	0x3ec4ce9b	0.38438877
237	0xbe80be74	-0.25145304
238	0x3ceef3cb	0.029168984
239	0x3e0d0021	0.1376958
240	0x3d79793f	0.060906645
241	0xbd55776d	-0.052115846
242	0x3da952ab	0.08267721
243	0xbd8ebf0c	-0.06970033
244	0xbe775bde	-0.24156138
245	0xbf809d05	-1.0047919
246	0xbe1aa5df	-0.15102337
247	0x3d403aff	0.046931263
248	0xbe81a83c	-0.25323665
249	0x3e8232e8	0.25429463
250	0x3e460b4f	0.19340251
251	0xbd4771b4	-0.04869242
252	0x3eaa0713	0.33208522
253	0x3e50e8af	0.20401262
254	0xbf04b419	-0.5183731
255	0xbe18f5af	-0.14937471

conv1.0.bias f4 [32]
0	0xbe316610	-0.1732409
1	0x3c30d44e	0.010792805
2	0x3cfaeb0f	0.030629663
3	0xbd847158	-0.06466931
4	0x3c877de5	0.016539523
5	0xbce6308e	-0.028099325
6	0x3df51ad7	0.1196801
7	0xbe0eccff	-0.13945387
8	0xbe48cccf	-0.19609378
9	0xbe230eab	-0.15923564
10	0x3df1bc4c	0.11803493
11	0xbe1a3467	-0.15059052
12	0x3c047932	0.008085536
13	0x3da44145	0.08020262
14	0xbea67376	-0.32509965
15	0xbd5b2c5a	-0.053509094
16	0x3d9c23d9	0.07624025
17	0xbe4141a8	-0.18872702
18	0xbdc919ca	-0.09819372
19	0x3c9164ad	0.017748201
20	0xbe8849a2	-0.26618677
21	0x3cd17a1c	0.025570922
22	0x3becf73f	0.0072316225
23	0x3bef28a8	0.007298548
24	0xbded50ce	-0.11587678
25	0x3c2ba79f	0.010476976
26	0x3e4d34c6	0.20039663
27	0x3d7219b2	0.059106536
28	0xbe177c23	-0.14793448
29	0xbe902e8b	-0.2816051
30	0xbca508ed	-0.020145858
31	0xbe801a80	-0.25020218

conv1.2.weight f4 [32]
0	0x3f599073	0.84986037
1	0x3f63db59	0.8900657
2	0x3f718868	0.94348764
3	0x3f805b1a	1.0027802
4	0x3f84bf02	1.0370791
5	0x3f6ee33c	0.9331548
6	0x3f279707	0.65464824
7	0x3f76102b	0.9611842
8	0x3f3cce16	0.7375196
9	0x3f6fb0fa	0.9362942
10	0x3f675aa6	0.90372694
11	0x3f7f7de6	0.9980148
12	0x3f7c0ce9	0.984572
13	0x3f6855c0	0.90755844
14	0x3f797f89	0.9746023
15	0x3f4fe7a8	0.81212854
16	0x3f806f6a	1.0034001
17	0x3f662b9b	0.89910287
18	0x3f1e55a9	0.6184946
19	0x3f30d65c	0.69077086
20	0x3f6abc90	0.91693974
21	0x3f85daaf	1.0457362
22	0x3f5f6000	0.8725586
23	0x3fabcc34	1.3421693
24	0x3f6efd6d	0.9335545
25	0x3f9ccc6e	1.2249887
26	0x3f3ec65d	0.7452143
27	0x3f7df247	0.9919781
28	0x3f707417	0.9392714
29	0x3f6fa13f	0.93605417
30	0x3f8c1b10	1.0945759
31	0x3f801040	1.0004959

conv1.2.bias f4 [32]
0	0x3e0f2aab	0.1398112
1	0x3d9df6b6	0.07713072
2	0xbca80a76	-0.0205128
3	0x3e1bf7c2	0.15231231
4	0x3de874f9	0.11350436
5	0x3e11c95f	0.14236973
6	0xbdd3dc3b	-0.1034474
7	0xbe810357	-0.2519786
8	0x3dc36c74	0.0954217
9	0x3e7bb392	0.2458022
10	0xbd9905bc	-0.07471797
11	0xbe45fc70	-0.19334579
12	0x3e159509	0.14607634
13	0x3e00562d	0.12532873
14	0xbe44b729	-0.19210495
15	0x3d12dede	0.035857074
16	0xbd856292	-0.065129414
17	0x3db1d402	0.086830154
18	0xbc914259	-0.017731832
19	0x3dfd2065	0.123596944
20	0xb9dc4ef6	-0.000420205
21	0x3e247571	0.16060425
22	0x3d95877c	0.07301232
23	0xbdde8818	-0.108658016
24	0xbe2c7c0a	-0.16844192
25	0xbdb07ed3	-0.0861794
26	0xbd37661b	-0.04477511
27	0x3dfc5bc5	0.12322191
28	0x3d935844	0.0719457
29	0x3e414170	0.18872619
30	0x3e343398	0.17597806
31	0x3e5635c9	0.20918955

conv1.2.running_mean f4 [32]
0	0x3d2d3cad	0.042294193
1	0x3ccbc674	0.024874903
2	0x3c9b1d06	0.018934738
3	0x3c9315f2	0.0179548
4	0x3ca819d7	0.020520134
5	0x3c408122	0.011749538
6	0x3dc7c113	0.09753623
7	0x00000004	6e-45
8	0x34b85d8c	3.4340735e-07
9	0x00000004	6e-45
10	0x3ddafedf	0.10693144
11	0x00000004	6e-45
12	0x3d0d7644	0.034536615
13	0x3d8ff180	0.07028484
14	0x00000004	6e-45
15	0x3c5e9058	0.013584219
16	0x3d92a1c4	0.071597606
17	0x00000004	6e-45
18	0x3c86498f	0.016392497
19	0x3d13b92d	0.03606527
20	0x10e169c5	8.8909816e-29
21	0x3d1449ae	0.03620308
22	0x3d029a63	0.031885516
23	0x3b83f460	0.0040269345
24	0x00000004	6e-45
25	0x3bc414bd	0.0059839175
26	0x3e88d584	0.267254
27	0x3d2f8569	0.04285184
28	0x3c15f9d1	0.009153799
29	0x00000004	6e-45
30	0x3cd245ce	0.025668051
31	0x00000004	6e-45

conv1.2.running_var f4 [32]
0	0x3c25629a	0.010094309
1	0x3a9a8fee	0.0011792162
2	0x39829ba0	0.00024911482
3	0x3b49cc94	0.0030792104
4	0x3a60bc06	0.00085729396
5	0x3aacd836	0.0013186994
6	0x3aa92b6c	0.0012906617
7	0x00000004	6e-45
8	0x31a09cbf	4.674433e-09
9	0x00000004	6e-45
10	0x3b21718f	0.0024634337
11	0x00000004	6e-45
12	0x3b780b21	0.003784843
13	0x3b5a3e12	0.0033301157
14	0x00000004	6e-45
15	0x3a8b9954	0.0010650554
16	0x3b825fab	0.0039786897
17	0x00000004	6e-45
18	0x3b09e5ba	0.0021041469
19	0x3b4af10a	0.0030966424
20	0x0e3c0c5b	2.3178738e-30
21	0x3b1bad6d	0.0023754493
22	0x3b7f90dc	0.0038996255
23	0x3761268a	1.3420018e-05
24	0x00000004	6e-45
25	0x37f36fd3	2.901993e-05
26	0x3c83be98	0.016082093
27	0x3aac1698	0.0013129292
28	0x3ab9f838	0.0014188355
29	0x00000004	6e-45
30	0x3bc8346c	0.006109765
31	0x00000004	6e-45

conv2.0.weight f4 [64, 32, 3, 3]
0	0xbbe5b486	-0.0070100455
1	0x3d8f57b4	0.0699915
2	0xbd785d9e	-0.060636155
3	0xbd85c1f3	-0.065311335
4	0xbd7f0591	-0.062261168
5	0xbca6efc8	-0.020378008
6	0x3d5fab3e	0.05460667
7	0x3ac8b934	0.0015313984
8	0x3d68b5c3	0.056813966
9	0xbda62fc3	-0.081145786
10	0xbab283ca	-0.0013619598
11	0x3d80647b	0.06269165
12	0x3d0924f8	0.03348252
13	0xbd0cc3c2	-0.034366377
14	0xbd172277	-0.036898103
15	0xbe0a107c	-0.13482851
16	0xbc8d5762	-0.017253581
17	0xbcc1eb21	-0.023671689
18	0xbd197b4b	-0.037471097
19	0x3c364f25	0.011127268
20	0x3d4c2856	0.049843155
21	0xbdb70dd3	-0.08938184
22	0x3cc3e8b1	0.023914667
23	0x3c9d61e0	0.01921171
24	0xbccdc558	-0.025118515
25	0x3caa2976	0.020771723
26	0xbd562e2d	-0.05229013
27	0xbd61ddfc	-0.05514334
28	0xbd97d1b6	-0.07413046
29	0x3c386d5e	0.011256544
30	0xbdb2dcc9	-0.08733518
31	0xbd9c37fc	-0.07627866
32	0xbc1a266a	-0.009408573
33	0x3cf15158	0.029457733
34	0x3d151d1a	0.036404707
35	0xbcfd962a	-0.030955393
36	0x3e1e7650	0.1547482
37	0x3e1141b5	0.14185221
38	0x3c55c5ae	0.013047619
39	0x3d9b639b	0.075873576
40	0x3d39a729	0.045325432
41	0xbda02b2d	-0.07820735
42	0xbd9085a2	-0.070567384
43	0xbd5ba753	-0.05362637
44	0xbd802d36	-0.06258623
45	0x3d864711	0.065565236
46	0x3da178e4	0.07884386
47	0x39c1272b	0.0003684101
48	0xbd033ebd	-0.032042254
49	0x3d3a4f11	0.04548556
50	0x3d820c7f	0.0635004
51	0x3d143936	0.036187373
52	0xbae9e2b5	-0.0017844053
53	0xbd57228d	-0.052523185
54	0x3d0f2952	0.034951515
55	0x3cda1c1a	0.026624728
56	0x3d077941	0.03307462
57	0x3dfeee42	0.12447788
58	0x3d7ba523	0.061436784
59	0x3d896446	0.06708579
60	0xbc3dbd5b	-0.01158079
61	0xbc643e79	-0.01393091
62	0x3c57e6b8	0.013177566
63	0xbde19fc2	-0.110167995
64	0x3dc55e2c	0.096371025
65	0xbdc0abc5	-0.094077624
66	0xbe0d4041	-0.13794042
67	0x3dd1fd99	0.10253448
68	0xbd37c466	-0.044865035
69	0x3eade4a1	0.33963493
70	0x3ec7bc84	0.39011014
71	0x3ecedb5f	0.40401742
72	0x3d55b1f9	0.05217168
73	0xbaf5543b	-0.0018717119
74	0x3dcfae7a	0.10140701
75	0x3d666c46	0.0562556
76	0xbd0e0772	-0.03467507
77	0x3d15e330	0.036593616
78	0xbeabf99c	-0.33588874
79	0xbecdc695	-0.4019057
80	0xbecc86e0	-0.3994665
81	0x3d79c11f	0.06097519
82	0xbcde6eb2	-0.027152393
83	0x3d56b04b	0.05241422
84	0x3e1d1d51	0.15343215
85	0xbda0e4d0	-0.078561425
86	0x3d4e7033	0.05039997
87	0xbecd01d7	-0.40040466
88	0xbed67f37	-0.41893932
89	0xbebbbe46	-0.36668605
90	0x3a99b75a	0.0011727617
91	0xbc136e45	-0.008998458
92	0xbde37472	-0.111061946
93	0x3cfa8b12	0.030583892
94	0x3a7f5bab	0.00097411376
95	0xbd6aeb73	-0.057353448
96	0x3ce39465	0.027780721
97	0x3d775404	0.060382858
98	0x3db7c2ec	0.08972725
99	0xbe318a53	-0.17337923
100	0x3d68e818	0.056861967
101	0xbd08a494	-0.03336008
102	0xbe22bb55	-0.15891774
103	0x3e189c74	0.14903432
104	0xbc8b3c83	-0.016996628
105	0x3ed78b3d	0.42098418
106	0x3ed16aed	0.4090189
107	0x3ece2a5a	0.40266687
108	0x3e1a2332	0.15052488
109	0x3d92ce38	0.07168239
110	0x3d91f97f	0.07127666
111	0x3d446b39	0.047953818
112	0xbd95074a	-0.07276781
113	0xbdf5bfc2	-0.119994655
114	0xbd84be60	-0.06481624
115	0xbc1231e3	-0.008923027
116	0x3c165f03	0.009177926
117	0xbc937ffb	-0.018005362
118	0xbd02920e	-0.03187757
119	0xbd0d7d8f	-0.03454357
120	0x3d3116e1	0.04323471
121	0x3c2f46e4	0.010698054
122	0x3d15524b	0.036455434
123	0xbdcc2773	-0.09968462
124	0xbd1b7b77	-0.037959542
125	0xbd30f52a	-0.043202557
126	0xbe4009ad	-0.18753691
127	0x3dc3ff5a	0.09570189
128	0xbd154451	-0.036442105
129	0xbe4a6ecf	-0.19768833
130	0x3d711ef1	0.0588674
131	0xbdaae98e	-0.08345328
132	0x3ed424f8	0.41434455
133	0x3efa32b1	0.488668
134	0x3ec62fa9	0.38708237
135	0x3c9f6f1d	0.019462163
136	0xbd54dd2d	-0.051968742
137	0xbda62379	-0.081122346
138	0xbdb3a39b	-0.0877144
139	0xbdc8d28b	-0.09805783
140	0xba4e241d	-0.00078636577
141	0x3d17aaa4	0.03702797
142	0x3d1849f2	0.037179895
143	0x3d65ce15	0.05610474
144	0xbc5bac3d	-0.013407764
145	0x3dd05c81	0.10173894
146	0x3dc4f44d	0.09616909
147	0xbe2ec3e6	-0.17066917
148	0xbd345706	-0.044028305
149	0x3d34ad8d	0.044110823
150	0x3d314934	0.043282703
151	0xbc103f9a	-0.008804226
152	0x3d4bd30b	0.049761813
153	0x3da03442	0.078224674
154	0xbdccead3	-0.10005727
155	0x3c96d3ff	0.018411634
156	0x3e037fec	0.12841767
157	0x3a90ad93	0.0011038057
158	0x3cd8c3f3	0.026460623
159	0xbe83cd26	-0.25742453
160	0xbe90ec22	-0.28305155
161	0xbeb56f4c	-0.35436475
162	0xbe2d8858	-0.16946542
163	0x3dd8453a	0.10560079
164	0x3e1b3b1f	0.15159272
165	0xbe4539c9	-0.19260325
166	0xbd88fedc	-0.066892356
167	0xbd408091	-0.04699761
168	0x3dcc768e	0.0998355
169	0x3d85d3c0	0.06534529
170	0x3dd91f5f	0.10601687
171	0x3e22bc97	0.15892254
172	0xbce71965	-0.028210351
173	0x3d9b39fc	0.07579419
174	0xbdfe5496	-0.12418477
175	0xbdc6c564	-0.09705618
176	0xbda3a00e	-0.079895124
177	0xbd1a8232	-0.03772182
178	0x3cc9371e	0.024562415
179	0xbcb809b4	-0.022465564
180	0x3ce5fe44	0.028075345
181	0x3d0a7c1d	0.03380977
182	0xb9842dcf	-0.00025211132
183	0xbd24efa6	-0.04026761
184	0xbd11d7d5	-0.035606224
185	0x3ce28f69	0.027656274
186	0x3b88eda2	0.0041787187
187	0xbc98c80f	-0.018650083
188	0x3d870743	0.06593182
189	0xbde6b87d	-0.11265657
190	0x3c9fb7fe	0.019496914
191	0x3d972904	0.0738087
192	0x3ca4ad02	0.020102028
193	0x3ba34e77	0.004983719
194	0xbd9f1dd0	-0.07769358
195	0xbd73d00c	-0.05952458
196	0xbd7d39a3	-0.061822545
197	0xbe0f04dc	-0.13966697
198	0xbd7593f8	-0.059955567
199	0x3c9d0c13	0.019170796
200	0xbcec1d7f	-0.028822659
201	0xbe44515b	-0.1917166
202	0xbdde0a76	-0.10841839
203	0xbd10bfb4	-0.035339072
204	0xbd8bd40b	-0.06827553
205	0x3d070644	0.03296496
206	0x3d678e65	0.056532282
207	0x3cf246e4	0.029574819
208	0xbd0abcee	-0.033871584
209	0x3cad3e65	0.021147916
210	0xbd8295dd	-0.063762404
211	0xbdf83930	-0.12120283
212	0xbd627570	-0.05528778
213	0x3d9dd37c	0.07706353
214	0x3d4fb97b	0.050713997
215	0x3dd07cbd	0.10180042
216	0xbe389a3f	-0.1802759
217	0x3d718e3f	0.058973547
218	0xbd8f87c0	-0.07008314
219	0xbddaafdd	-0.106780745
220	0x3d7b93a9	0.061420117
221	0x3bdaf4ce	0.006682015
222	0x3eb17436	0.34658974
223	0x3ea93361	0.33047011
224	0x3ea6914c	0.32532728
225	0x3c8ad169	0.016945558
226	0x3c8b1725	0.01697881
227	0xbd250b41	-0.040293936
228	0x3d5bd532	0.053670116
229	0xbb4649a4	-0.0030256296
230	0xbc90a385	-0.017656097
231	0xbcc6b728	-0.024257258
232	0x3c4c42b8	0.012467079
233	0x3b857620	0.0040729195
234	0xbe1e3110	-0.15448403
235	0x3cf02e9d	0.029319102
236	0x3c8ede5b	0.017440012
237	0xbe13cfdc	-0.14434761
238	0xbd1104c6	-0.035404943
239	0xbc256712	-0.010095375
240	0x3e03812e	0.12842247
241	0x3d499946	0.04921844
242	0x3d51f5d9	0.05125985
243	0x3dd1d1f5	0.10245124
244	0x3cd8678f	0.026416568
245	0xbc6891c1	-0.014194907
246	0x3d6dc9dd	0.05805384
247	0x3cd692cd	0.026193047
248	0xbb8ac892	-0.0042353356
249	0xbd4db5a3	-0.05022205
250	0xbc7ef090	-0.015560284
251	0xbc4a8ee0	-0.012363166
252	0xbcbf1077	-0.02332328
253	0x3dc715e2	0.09720971
254	0x3dcb26ca	0.09919508
255	0xbe259c87	-0.16172992

conv2.0.bias f4 [64]
0	0xbdb9b779	-0.09068198
1	0xbda3c47d	-0.079964615
2	0x3d11ee5c	0.035627708
3	0xbd2af53e	-0.041737787
4	0x38854cfd	6.3562744e-05
5	0xbe034887	-0.12820636
6	0xbd99a7fc	-0.075027436
7	0xbda31904	-0.07963756
8	0xbd4bb587	-0.049733665
9	0xbdfddc37	-0.12395518
10	0xbe239f6d	-0.15978785
11	0xbdb8ce83	-0.09023764
12	0xbc83df51	-0.016097696
13	0xbe05d1a2	-0.1306825
14	0xbd61516c	-0.05500929
15	0xbcbf3669	-0.023341374
16	0xbdd3a86d	-0.10334859
17	0xbcd95fd7	-0.026534958
18	0xbb4f9c32	-0.0031678793
19	0xbda05f75	-0.07830707
20	0xbdd33d60	-0.10314441
21	0xbe2d5392	-0.16926411
22	0xbc90179e	-0.017589387
23	0x3ddda615	0.10822693
24	0xbb3d1039	-0.002884878
25	0xbdfea0fb	-0.12433048
26	0xbd93f8ae	-0.07225166
27	0xbe0d0643	-0.1377192
28	0x3d998267	0.074955754
29	0xbe42cc97	-0.19023357
30	0xbd33c0e6	-0.043885134
31	0xbceedcbf	-0.029157994
32	0xbcbc2886	-0.022968542
33	0xbcd82434	-0.02638445
34	0x3d9b856e	0.07593809
35	0xbe58fe00	-0.21190643
36	0xbd151d29	-0.036404762
37	0xbda39fa3	-0.07989433
38	0xbd9da27b	-0.07697006
39	0xbdfa89d5	-0.122333206
40	0xbdbad510	-0.0912267
41	0xbd07745a	-0.033069946
42	0xbd8255b6	-0.06364004
43	0xbcf99ac5	-0.030469308
44	0x3c5dcda9	0.013537803
45	0xbe108033	-0.14111404
46	0x3d181ed3	0.03713877
47	0xbd8dc121	-0.06921602
48	0xbdecef26	-0.115690514
49	0x3dd0a1a0	0.101870775
50	0xbdc77037	-0.097382
51	0x3c7848f8	0.015154116
52	0xbd8e3e3a	-0.069454625
53	0xbd8df3bc	-0.06931254
54	0xbd7c0e63	-0.061537158
55	0xbd35ef2e	-0.044417553
56	0xbd462618	-0.048376173
57	0x3bc43979	0.0059882966
58	0x3d29a760	0.041419387
59	0xbb29ba18	-0.0025898274
60	0x3d3161d7	0.043306198
61	0x3d867eeb	0.065671764
62	0x3d559a1f	0.052148934
63	0xbe082b27	-0.13297711

conv2.2.weight f4 [64]
0	0x3f6d274f	0.92638105
1	0x3f6e5708	0.9310155
2	0x3f6e74b4	0.93146825
3	0x3f67e00e	0.90576255
4	0x3f6a4af8	0.91520643
5	0x3f827326	1.019139
6	0x3f8f032e	1.1172845
7	0x3f6fb10d	0.93629533
8	0x3f713aca	0.9423033
9	0x3f8d8eab	1.1059164
10	0x3f6a74ca	0.91584456
11	0x3f8853eb	1.065061
12	0x3f647603	0.8924257
13	0x3f743da3	0.9540655
14	0x3f626c17	0.8844618
15	0x3f7cf14a	0.9880568
16	0x3f5c95a2	0.8616582
17	0x3f6c8fe8	0.92407084
18	0x3f627d15	0.8847211
19	0x3f73086f	0.94934744
20	0x3f7bb304	0.9832003
21	0x3f8715b6	1.0553501
22	0x3f795742	0.9739877
23	0x3f6ee565	0.9331878
24	0x3f5d3ead	0.8642376
25	0x3f6ba4c1	0.9204827
26	0x3fbcfe5e	1.4765127
27	0x3fa083f7	1.2540272
28	0x3f6fdd4d	0.93697053
29	0x3f6d728c	0.9275291
30	0x3f8ae56c	1.0851264
31	0x3f763e27	0.96188587
32	0x3f80682e	1.0031793
33	0x3f69cb69	0.91326004
34	0x3f6671f4	0.9001763
35	0x3f801ad9	1.0008193
36	0x3f898930	1.0744991
37	0x3f736a9f	0.95084566
38	0x3f79869d	0.9747103
39	0x3f819cb2	1.0125945
40	0x3f8aaed8	1.0834608
41	0x3f74890b	0.9552161
42	0x3f947f2a	1.1601307
43	0x3f970892	1.179949
44	0x3f66dcb1	0.901805
45	0x3f879fe5	1.0595671
46	0x3f6705b1	0.9024306
47	0x3f947688	1.1598673
48	0x3f7469cb	0.9547393
49	0x3f817087	1.0112466
50	0x3f8a607e	1.0810697
51	0x3f614664	0.8799803
52	0x3f79c2b4	0.9756272
53	0x3f791333	0.9729492
54	0x3f7a90ad	0.9787701
55	0x3f73ca95	0.9523099
56	0x3f81be22	1.0136149
57	0x3f6fd76f	0.936881
58	0x3f6747e6	0.90344083
59	0x3f82218d	1.0166489
60	0x3f808f01	1.0043641
61	0x3f5ba502	0.85798657
62	0x3f619062	0.88110936
63	0x3f8022c5	1.0010611

conv2.2.bias f4 [64]
0	0x3e37dde9	0.17955746
1	0x3d553d62	0.052060492
2	0x3e250344	0.16114527
3	0x3e21884d	0.15774651
4	0xbead9aca	-0.33907157
5	0xbe065c8a	-0.13121238
6	0x3e153ce2	0.14574006
7	0xbe1564ee	-0.14589283
8	0xbe71f4b7	-0.23628508
9	0xbdbe9716	-0.09306161
10	0xbde635a6	-0.112407014
11	0x3e203824	0.15646416
12	0x3e8a0d27	0.2696316
13	0xbe621ed7	-0.22082077
14	0x3e8075f7	0.2509
15	0xbddc240c	-0.10749063
16	0xbeb3a026	-0.3508312
17	0x3ec495e5	0.3839561
18	0x3e812ce9	0.25229576
19	0xbe805a5c	-0.2506894
20	0xbdd41b2a	-0.10356744
21	0xbc56f295	-0.0131193595
22	0x3e5071cd	0.20355912
23	0x3e1f6e7d	0.15569492
24	0x3e89fccb	0.26950678
25	0xbed7fb1d	-0.42183772
26	0x3e13f8f3	0.14450435
27	0x3e42cdc5	0.19023807
28	0xbea3271f	-0.31865785
29	0xbdd5399d	-0.104113795
30	0xbe25373f	-0.16134356
31	0xbd1aeb0c	-0.037821814
32	0xbdf91d9d	-0.121638514
33	0xbe2697fe	-0.16268918
34	0x3e128210	0.14307427
35	0xbe643b99	-0.2228836
36	0x3d96a337	0.073553495
37	0xbe7a1c52	-0.24424866
38	0xbe8ba273	-0.27272376
39	0xbe555c2b	-0.2083594
40	0x3e536eb4	0.20647699
41	0x3d9f96eb	0.07792457
42	0x3da4b32b	0.08041986
43	0x3b1b696e	0.0023713964
44	0x3e57cb4f	0.2107365
45	0xbdb0b752	-0.086287156
46	0x3e857fe9	0.2607415
47	0x3e088380	0.13331413
48	0x3e1d62b8	0.1536969
49	0xbd8fc471	-0.0701989
50	0x3e087de7	0.13329278
51	0x3eaf3302	0.34218603
52	0x3d227817	0.039665308
53	0xbe5c743c	-0.21528715
54	0xbd45746d	-0.048206735
55	0x3e205692	0.15658024
56	0xbec875d8	-0.39152408
57	0x3e37f90d	0.17966099
58	0xbe87d030	-0.26526022
59	0x3e9e240f	0.30886886
60	0x3dcf4e79	0.10122389
61	0x3e6925f1	0.2276838
62	0x3e9fb37b	0.3119162
63	0xbd5afbe9	-0.053462896

conv2.2.running_mean f4 [64]
0	0x3cd276cd	0.025691414
1	0x3e036052	0.12829712
2	0x3cd8e7d6	0.026477735
3	0x3f77657a	0.96639216
4	0x3ed923e9	0.4241021
5	0x3efb5195	0.4908568
6	0x3d989663	0.07450559
7	0x3e2bcfa5	0.16778429
8	0x3efa01c5	0.48829475
9	0x3bd87c06	0.0066065816
10	0x3e1999be	0.15000054
11	0x3e40f2a9	0.18842568
12	0x3e51feee	0.20507404
13	0x3e2be102	0.16785052
14	0x3eb77c5d	0.3583707
15	0x3eb6c75b	0.3569897
16	0x3ec64652	0.38725525
17	0x3e7bfc6b	0.24608009
18	0x3e9bf732	0.30462033
19	0x3ef143d0	0.4712205
20	0x3d821685	0.063519515
21	0x3cb31337	0.021859748
22	0x3e10a483	0.14125256
23	0x3fb313e4	1.3990445
24	0x3f2af563	0.6678068
25	0x3ec636ae	0.38713592
26	0x3e28c00c	0.1647951
27	0x3d73bbcc	0.05950527
28	0x3e5c0b4a	0.21488681
29	0x3ddaeed1	0.10690082
30	0x3e099fb9	0.13439836
31	0x3e424f6c	0.1897561
32	0x3e8688f5	0.26276365
33	0x3e2e2643	0.17006783
34	0x3fe6442c	1.7989554
35	0x3d47510e	0.048661284
36	0x3f03f27b	0.5154187
37	0x3f13c9d5	0.57729846
38	0x3f13b358	0.5769553
39	0x3d415ba4	0.047206536
40	0x3dd1a23c	0.10236022
41	0x3e8f9074	0.28039896
42	0x3e89d63f	0.2692127
43	0x3d537b97	0.051631536
44	0x3fe24038	1.7675848
45	0x3db28e19	0.08718509
46	0x400b8ec6	2.1805892
47	0x3e325d0a	0.17418304
48	0x3e2ec02b	0.17065494
49	0x3eea09c0	0.45710564
50	0x3e08c360	0.1335578
51	0x3f9c2dd7	1.2201489
52	0x3cdc06b8	0.026858672
53	0x3d4cda26	0.05001273
54	0x3c8e3f3b	0.017364135
55	0x3fdc4d77	1.721114
56	0x3ebe9ac8	0.37227464
57	0x3f62f229	0.8865076
58	0x3e4b25e2	0.1983867
59	0x3e9b76a4	0.30363953
60	0x3e875e18	0.26438975
61	0x3e9db153	0.3079935
62	0x3f1afd78	0.6054301
63	0x3d555926	0.05208697

conv2.2.running_var f4 [64]
0	0x3ca0e188	0.019638792
1	0x3e3a4afd	0.18192668
2	0x3cadaa21	0.021199288
3	0x4091db57	4.558025
4	0x3e7601c9	0.24024118
5	0x3ef0371d	0.46917048
6	0x3dd1ae01	0.10238267
7	0x3e0951f2	0.13410166
8	0x3ea45cd3	0.3210207
9	0x3b96331e	0.0045837304
10	0x3e97a36d	0.2961687
11	0x3e6b5383	0.22981076
12	0x3f1ace7f	0.6047134
13	0x3ecac73f	0.39605138
14	0x3e2e4617	0.17018925
15	0x3e91585e	0.2838773
16	0x3fa0b225	1.2554365
17	0x3eeb988f	0.4601483
18	0x3e243179	0.16034497
19	0x3fb472ad	1.4097496
20	0x3da1e8f3	0.0790576
21	0x3ceecf41	0.02915156
22	0x3e2e9778	0.17049968
23	0x3fd43f8d	1.6581894
24	0x3ee4aec8	0.44664598
25	0x3f573c6f	0.8407659
26	0x3e3e646f	0.18593
27	0x3d1b6f2a	0.03794781
28	0x3d955843	0.07292225
29	0x3e184003	0.14868169
30	0x3e3e1ada	0.1856493
31	0x3ec6effd	0.38854972
32	0x3ee91930	0.4552703
33	0x3e110241	0.14161016
34	0x401540ad	2.3320725
35	0x3d44d202	0.04805184
36	0x3f198e22	0.599825
37	0x3eaaabb6	0.3333413
38	0x3fc2f111	1.5229818
39	0x3d5c0b51	0.05372173
40	0x3e1246b8	0.1428479
41	0x3f7ee289	0.99564415
42	0x3ee8ae9c	0.45445716
43	0x3d701c42	0.0586207
44	0x4010ab2c	2.2604475
45	0x3e1ce6e1	0.15322448
46	0x404f4d48	3.2390919
47	0x3db45324	0.0880492
48	0x3ed602b9	0.41798952
49	0x3ebced0d	0.36899605
50	0x3e035ddc	0.12828773
51	0x3fa6a813	1.3020042
52	0x3ca3ce17	0.019995732
53	0x3d54cbe2	0.05195225
54	0x3c90998d	0.017651344
55	0x40eaa0c3	7.332124
56	0x3f158fe7	0.584227
57	0x3f21abe8	0.63152933
58	0x3da25f0b	0.07928284
59	0x3e9d1999	0.30683592
60	0x3ece2983	0.40266046
61	0x3e8fe137	0.28101513
62	0x3ec5122d	0.3849043
63	0x3d52026a	0.051271833

attn.1.weight f4 [32, 64, 1, 1]
0	0x3ceb8bf3	0.028753256
1	0x3e0b14f2	0.13582209
2	0x3d0d980c	0.03456883
3	0x3d463907	0.04839423
4	0x3e0940a2	0.13403562
5	0x3e157edc	0.14599174
6	0xbd6fc8d1	-0.058541123
7	0x3d9515ca	0.072795466
8	0x3962afef	0.0002161858
9	0xbde5c10f	-0.11218464
10	0x3ccf0d6a	0.025274951
11	0xbdd5ac88	-0.10433298
12	0xbd49fbaf	-0.04931229
13	0xbd6c493f	-0.05768704
14	0x3d00dc42	0.031460054
15	0x3d523c46	0.051327012
16	0x3df7085c	0.12062141
17	0x3de88c86	0.11354928
18	0xbc741013	-0.0148964105
19	0xbc8135c0	-0.0157727
20	0x3dd0d20b	0.101963125
21	0x3baebf83	0.0053328886
22	0xbd8b2120	-0.067934275
23	0x3d68526b	0.056719225
24	0xbd8cbe9a	-0.06872292
25	0x3e04a3f3	0.12953167
26	0x3d4935bf	0.049123522
27	0x3dd15008	0.10220343
28	0xbdea6fc8	-0.11447102
29	0xbd117c25	-0.035518784
30	0x3c199ac3	0.009375277
31	0xb81ba95b	-3.7112604e-05
32	0x3dd8a740	0.105787754
33	0x3da9594f	0.082689874
34	0xbd03c792	-0.032172747
35	0xbd6cd76a	-0.057822622
36	0x3db26153	0.08709969
37	0x3d9e120d	0.07718287
38	0x3e0baa7a	0.1363925
39	0xbd467162	-0.048447974
40	0x3cc4c09a	0.02401762
41	0xbd892548	-0.06696564
42	0xbc2d0c4a	-0.010562012
43	0x3d890264	0.06689909
44	0x3d8b1663	0.06791379
45	0xbc44dfa0	-0.012016207
46	0x3d8529ae	0.065020904
47	0xbd2704c9	-0.040776048
48	0x3d636592	0.055516787
49	0x3da75ffc	0.081726044
50	0x3da9e7b1	0.08296145
51	0x3a92fb90	0.0011213887
52	0xbd821a5d	-0.06352685
53	0xbdd96e67	-0.10616761
54	0x3da66f9b	0.08126756
55	0xbd307a31	-0.04308528
56	0x3df84342	0.121222034
57	0xbd765bc1	-0.060146097
58	0x3e04eba0	0.12980509
59	0xbdc61d42	-0.09673549
60	0xbd019d7a	-0.031644322
61	0xbd904855	-0.07045046
62	0x3dd1f7dd	0.10252354
63	0x3d986a34	0.07442132
64	0x3dbc88b8	0.092057645
65	0x3e61b046	0.22039899
66	0x3d87fd35	0.06640092
67	0x3e055c9a	0.13023606
68	0xbe11d557	-0.14241539
69	0xbea441f8	-0.3208158
70	0xbde8fcac	-0.11376318
71	0xbe4bdb46	-0.19907865
72	0x3c65faf7	0.014036885
73	0x3df91998	0.12163085
74	0xbd380834	-0.044929698
75	0x3e0bda67	0.13657533
76	0x3e3dd863	0.18539576
77	0xbcf895c4	-0.030344851
78	0xbe7adca8	-0.24498236
79	0x3d1da837	0.0384905
80	0x3db69340	0.089148045
81	0xbd4ecf71	-0.0504908
82	0xbd9c2731	-0.07624663
83	0xbcfbe77b	-0.030750027
84	0xbdb8ee02	-0.090297714
85	0x3d93591e	0.07194732
86	0xbde24b6c	-0.11049542
87	0x3d39a3db	0.04532228
88	0x3c3be03f	0.011467039
89	0x3cf81f17	0.030288262
90	0x3d97b609	0.07407767
91	0xbcc5f60b	-0.024165174
92	0xbe1abccc	-0.15111083
93	0x3d84a10b	0.06476029
94	0xbd8a9b14	-0.0676786
95	0x3e182a26	0.14859828
96	0xbdedb2e8	-0.11606389
97	0xbd6b20a4	-0.057404175
98	0xbdda39e8	-0.10655576
99	0xbe91ea54	-0.2849909
100	0x3e5653f4	0.20930463
101	0xbe3b98fa	-0.18320075
102	0x3d8f7d28	0.070062935
103	0x3e64d67f	0.22347449
104	0x3c2558c8	0.010091968
105	0x3d9d43d6	0.07678954
106	0xbdf87b31	-0.12132872
107	0x3ed683bd	0.41897383
108	0x3e2b3872	0.16720751
109	0x3db7a761	0.08967472
110	0xbdcfc3cc	-0.10144767
111	0xbe04c376	-0.12965187
112	0xbe07c596	-0.13258967
113	0xbe03899f	-0.12845467
114	0xbea51787	-0.32244512
115	0x3e14cde0	0.1453166
116	0xbc6f5118	-0.014606737
117	0x3dfddfc8	0.123961985
118	0x3ecdea72	0.4021793
119	0x3e8f0b3b	0.27938256
120	0xbda1acda	-0.07894297
121	0xbd0dd203	-0.03462411
122	0x3dd05878	0.10173124
123	0xbdc78126	-0.0974143
124	0xbdc8bb42	-0.098013416
125	0x3e14c7cd	0.14529343
126	0xbc4dc0ca	-0.0125581715
127	0xbdc92c02	-0.09822847
128	0xbd9749b5	-0.073871054
129	0xbc8b8cbe	-0.017034885
130	0xbce97c54	-0.028501667
131	0xbc5f168a	-0.013616214
132	0x3c3a71af	0.011379643
133	0xbdfe9ad3	-0.12431874
134	0x3e92f70e	0.28704113
135	0xbe1b7d9c	-0.15184635
136	0xbccb22df	-0.024796901
137	0x3e6ef70f	0.23336433
138	0xbe8d3d12	-0.27585655
139	0x3dc148f7	0.09437745
140	0xbc6d7601	-0.014493466
141	0xbc9fb378	-0.019494757
142	0x3d574c4e	0.052563004
143	0x3dee9d6c	0.116511196
144	0xbe679dec	-0.22618836
145	0x3e3219a0	0.17392588
146	0x3bdbb029	0.0067043495
147	0xbe53b6e1	-0.20675232
148	0x3d269403	0.0406685
149	0x3ddf77b1	0.10911501
150	0x3e8973f4	0.26846278
151	0x3a946fa3	0.0011324774
152	0x3de989db	0.11403247
153	0xbe195aed	-0.14976092
154	0x3ea3a29f	0.31960008
155	0xbe8152c0	-0.25258446
156	0xbe16cde4	-0.14726979
157	0xbd72a802	-0.059242256
158	0x3c7f95d5	0.015599688
159	0xbe2c0eb7	-0.16802488
160	0xbe40ae0b	-0.18816392
161	0xbde1fb63	-0.11034276
162	0x3e517103	0.20453267
163	0xbdc39c69	-0.09551317
164	0xbb697719	-0.0035623966
165	0xbe579f4e	-0.21056864
166	0xbeaf13ba	-0.34194738
167	0x3e3b42e2	0.18287233
168	0xbde3d38e	-0.11124335
169	0x3da4c864	0.08046034
170	0x3e0013d3	0.12507562
171	0x3ee2c1a9	0.44288376
172	0x3d155c61	0.036465053
173	0xbc15743e	-0.009121953
174	0x3e0fe7f3	0.14053325
175	0xbe428068	-0.18994296
176	0x3d74aac8	0.059733182
177	0xbc915eb2	-0.01774535
178	0xbdcf53f7	-0.10123437
179	0xbab50702	-0.0013811293
180	0xbed85027	-0.4224865
181	0x3c031750	0.008001164
182	0xbd7ba5ba	-0.061437346
183	0xbe0a6891	-0.13516451
184	0xbe4af9b7	-0.19821821
185	0x3d907eb4	0.07055417
186	0xbe36586c	-0.17807168
187	0x3e47214a	0.19446293
188	0x3d6370ca	0.055527486
189	0xbac8ae5e	-0.0015310755
190	0x3e32719d	0.17426153
191	0x3d39fb93	0.045405935
192	0x3c6a999e	0.014318852
193	0xbf2fafc9	-0.686276
194	0xbd590715	-0.05298527
195	0xbd630781	-0.05542708
196	0x3d251d1e	0.04031097
197	0xbd2d9559	-0.042378757
198	0xbe08bcd9	-0.1335329
199	0x3d82a9d0	0.063800454
200	0x3df31f11	0.1187116
201	0xbf0fc615	-0.56161624
202	0x3defedd4	0.11715284
203	0xbe242a8c	-0.16031855
204	0xbd9f6936	-0.07783739
205	0xbc7e22c6	-0.01551122
206	0x3e02cf5c	0.12774414
207	0xbe6c7b2f	-0.23093866
208	0xbe04ff81	-0.12988092
209	0x3e1a9ebe	0.15099618
210	0x3df40d5c	0.119166106
211	0x3c202c9e	0.009776263
212	0xbdf7a65a	-0.12092276
213	0xbe869367	-0.26284334
214	0x3e1d6642	0.1537104
215	0xbe7a95d7	-0.24471222
216	0xbd9a2602	-0.07526781
217	0xbd956bce	-0.07295953
218	0xbeab0c42	-0.3340779
219	0xbe110c71	-0.14164902
220	0x3e1c6a97	0.15275036
221	0xbe33e166	-0.17566451
222	0xbd83081a	-0.063980296
223	0xbe3a6e8a	-0.1820623
224	0x3dd30e0f	0.10305416
225	0x3bb9497c	0.005654512
226	0x3d9ee19a	0.07757874
227	0xbc320cbd	-0.010867295
228	0xbd27d47a	-0.040974118
229	0xbdfc1bef	-0.123100154
230	0x3c5b02b8	0.013367347
231	0xbdd7baa0	-0.10533643
232	0x3d8117d3	0.06303372
233	0xbcb5ab30	-0.022176355
234	0xbc5c7fa8	-0.01345817
235	0x3e458354	0.19288379
236	0x3e034b11	0.12821604
237	0xbea65af4	-0.32491267
238	0x3d9376c5	0.07200388
239	0x3e1189c5	0.14212711
240	0xbe86d7a5	-0.263364
241	0x3cc07d15	0.023497144
242	0x3bbd9f9f	0.0057868506
243	0x3d84abd5	0.06478087
244	0xbc76d799	-0.015066051
245	0xbea62e13	-0.32457027
246	0xbd23e53f	-0.040013548
247	0xbbb9ad1c	-0.005666388
248	0xbba19277	-0.00493079
249	0x3bd55002	0.006509782
250	0x3ce9c7d0	0.02853766
251	0x3e1281f4	0.14307386
252	0xbee06448	-0.4382651
253	0x3bb4b649	0.005514894
254	0x3e194c8f	0.14970611
255	0xbf003c7a	-0.5009228

attn.1.bias f4 [32]
0	0xbdccd1d3	-0.10000958
1	0x3e23d11a	0.15997735
2	0x3df11b72	0.11772813
3	0x3daedf88	0.08538729
4	0x3dc37a2f	0.09544789
5	0x3e041e82	0.12902263
6	0x3e07a23a	0.13245478
7	0xbe3e7d78	-0.1860255
8	0xbd90cdab	-0.07070478
9	0x3e0c4fe7	0.13702355
10	0x3d1a22e5	0.037630934
11	0x3e5c15d6	0.21492705
12	0x3cad91e3	0.021187728
13	0x3e08cf13	0.13360243
14	0xbdc59f34	-0.09649506
15	0x3da5f5cc	0.08103523
16	0x3ad9e968	0.0016625347
17	0x3ad50757	0.0016252798
18	0x3d2bf158	0.04197821
19	0x3de1d51e	0.11026977
20	0xbd854336	-0.0650696
21	0xbd24354f	-0.0400899
22	0x3d072074	0.032989934
23	0x3e0e9f04	0.13927847
24	0x3dd03011	0.10165418
25	0xbe32c23b	-0.17456906
26	0x3ca4fb1c	0.02013927
27	0x3ea2feee	0.3183512
28	0xbd7f1779	-0.062278245
29	0x3e4edc87	0.20201312
30	0x3e6d3b64	0.23167187
31	0x3e31323f	0.17304324

attn.3.weight f4 [64, 32, 1, 1]
0	0xbdaba29b	-0.08380624
1	0xbd885ab3	-0.066579245
2	0x3d62bdae	0.055356674
3	0xbe0b82df	-0.13624142
4	0x3d8cc5de	0.06873678
5	0x3ce2d80f	0.027690915
6	0x3dd811a1	0.105502374
7	0xbe0ae430	-0.13563609
8	0xbca4af6c	-0.020103179
9	0xbd74afd9	-0.059738014
10	0xbf1be6ce	-0.60899055
11	0x3e61cf75	0.22051795
12	0x3ef7b145	0.48377433
13	0x3ee7ae2f	0.4525008
14	0xbd84fefc	-0.06493947
15	0xbeb8c5b6	-0.3608834
16	0xbd33012f	-0.0437023
17	0xbe803b68	-0.25045323
18	0x3eb3dd53	0.35129794
19	0xbe3692b3	-0.17829399
20	0x3df00a11	0.1172067
21	0xbd5d281d	-0.053993333
22	0x3d67db89	0.05660585
23	0xbe2109e5	-0.1572643
24	0xbe2c763b	-0.16841976
25	0x3ded413a	0.115847066
26	0xbd849623	-0.06473949
27	0xbe658561	-0.22414161
28	0x3d20e9df	0.039285537
29	0x3d2e5367	0.042560007
30	0xbe5a1248	-0.21296036
31	0x3e0d706f	0.13812421
32	0xbddcd0a5	-0.10781983
33	0xbe21cafa	-0.15800086
34	0x3cb7dc0c	0.022443794
35	0x3eaa85ff	0.33305356
36	0xbe2a6f33	-0.16643982
37	0x3e2cd0e5	0.16876562
38	0xbe4cde44	-0.20006663
39	0x3d166160	0.036713958
40	0xbd58b996	-0.052911364
41	0x3e251301	0.1612053
42	0xbd11747b	-0.035511475
43	0xbeee0fcd	-0.4649643
44	0xbeccaf23	-0.3997737
45	0xbea839fb	-0.32856736
46	0x3dd61f2c	0.10455164
47	0x3da86e2a	0.08224137
48	0xbedb162c	-0.42790353
49	0x3f07c82f	0.5303983
50	0x3e05fc1a	0.1308445
51	0xbe8bdb70	-0.27315855
52	0xbe0626f7	-0.13100801
53	0x3e892ee9	0.26793602
54	0xbe3160ff	-0.17322157
55	0x3d9fc887	0.078019194
56	0x3da200e4	0.07910326
57	0xbc695a5d	-0.014242736
58	0x3e8a31f5	0.2699124
59	0xbe2775bc	-0.16353506
60	0x3dbc6ec6	0.09200816
61	0xbeabfbee	-0.33590645
62	0x3d4fdb7c	0.050746426
63	0xbefaa9a6	-0.48957556
64	0xbcbd27de	-0.0230903
65	0xbd4591f9	-0.048234913
66	0xbdaad298	-0.08340949
67	0xbd9bf619	-0.07615299
68	0xbe3b792b	-0.1830794
69	0xbc208d32	-0.009799289
70	0x3e22bacc	0.1589157
71	0x3d504ef0	0.05085653
72	0x3e6b7edd	0.22997613
73	0xbd8a2c34	-0.06746712
74	0xbe95c4bd	-0.29251662
75	0xbe470275	-0.19434531
76	0x3ea57d2d	0.32322064
77	0x3e6dbae7	0.23215829
78	0x3e170866	0.14749297
79	0x3d7a29e6	0.061075114
80	0x3c97be9f	0.018523512
81	0xbe139ab1	-0.14414479
82	0x3e3ed1cf	0.18634723
83	0xbc6075d4	-0.013699967
84	0x3cc22146	0.023697507
85	0x3de1f4c8	0.110330164
86	0xbd9d5d30	-0.0768379
87	0xbc3c1c84	-0.011481408
88	0x3e07cbd9	0.13261355
89	0x3d226d56	0.039655052
90	0xbd36dd95	-0.04464491
91	0xbdc5a0ba	-0.09649797
92	0xbc07320b	-0.008251677
93	0xbc858bf5	-0.016302088
94	0xbdc6602c	-0.09686312
95	0xbe90f502	-0.28311926
96	0x3e246d29	0.16057266
97	0x3d7949f1	0.06086153
98	0xbded2a80	-0.11580372
99	0xbe4186bf	-0.18899058
100	0xbe3e975f	-0.18612431
101	0xbe86d9d9	-0.2633808
102	0xbe0d4f62	-0.13799813
103	0x3e1f8ab1	0.1558025
104	0xbd5b850e	-0.053593688
105	0xbe13d46b	-0.144365
106	0x3deed8cd	0.11662445
107	0x3d36d310	0.04463488
108	0xbe12c4b2	-0.14332846
109	0x3e6861d9	0.22693576
110	0x3e2bda64	0.16782528
111	0x3e10fc0a	0.14158645
112	0x3dda6a33	0.10664787
113	0xbdf2e047	-0.11859184
114	0xbe296ba6	-0.16544971
115	0x3c7b08f2	0.015321957
116	0x3d877e69	0.06615908
117	0x3e001548	0.12508118
118	0xbdb73cf5	-0.089471735
119	0xbbb152d6	-0.005411486
120	0xbe53f52f	-0.20698999
121	0xbdddea81	-0.10835744
122	0xbc9f4557	-0.019442244
123	0xbeccb849	-0.39984348
124	0xbdfcf57d	-0.12351511
125	0xbda01178	-0.07815832
126	0xbed071bb	-0.4071177
127	0xbd98920f	-0.074497335
128	0xbe374cf0	-0.17900443
129	0xbe1775c1	-0.14791013
130	0xbde24f34	-0.11050263
131	0xbe5d7039	-0.21624841
132	0xbdf331fe	-0.1187477
133	0x3df786e9	0.12086279
134	0x3a526e38	0.0008027288
135	0x3e27626c	0.16346139
136	0xbbb877c4	-0.0056295116
137	0xbe0b602c	-0.13610905
138	0xbc9e618c	-0.019333623
139	0xbc99c930	-0.018772691
140	0x3e114da6	0.14189777
141	0xbe78e0c0	-0.24304485
142	0x3e2c2a0c	0.16812915
143	0x3c3647dc	0.011125531
144	0xbe1269f3	-0.14298229
145	0xbe06ba91	-0.13157107
146	0xbda1b680	-0.07896137
147	0x3db1398e	0.08653556
148	0xbe833398	-0.256253
149	0xbea3fbc1	-0.3202801
150	0xbd949c0e	-0.072563276
151	0x3dee86b4	0.11646786
152	0x3cf1bec8	0.029509917
153	0x3df0eabb	0.11763521
154	0xbe3b5576	-0.1829432
155	0xbdefcded	-0.11709199
156	0x3d7a5fb9	0.061126444
157	0x3c9380bb	0.01800572
158	0xbe5314d1	-0.2061341
159	0xbd16d08f	-0.03681999
160	0x3e0624c2	0.1309996
161	0x3e6fb0c8	0.2340728
162	0xbe856e18	-0.26060557
163	0xbe089a96	-0.1334022
164	0xbc83adce	-0.016074087
165	0xbe72fdb5	-0.23729594
166	0x3e6746fd	0.22585674
167	0xbe4b636f	-0.1986215
168	0xbaee789f	-0.0018193907
169	0xbd48487c	-0.04889725
170	0x3c611ee5	0.013740276
171	0xbdc72cc0	-0.09725332
172	0x3e89aa50	0.2688775
173	0x3e0ec3cb	0.13941877
174	0x3dd65277	0.10464948
175	0xbe8cfabc	-0.27535045
176	0x3e915644	0.28386128
177	0xbe62d4d3	-0.22151498
178	0x3cb987ab	0.0226477
179	0xbd8f0fdb	-0.06985446
180	0x3e5b686c	0.21426553
181	0x3eafa8a8	0.34308362
182	0xbe21cfbc	-0.158019
183	0xbe01aec0	-0.12664318
184	0x3e0991bb	0.13434498
185	0x3b1c0008	0.002380373
186	0x3e0cfe07	0.13768779
187	0xbea77bf2	-0.3271175
188	0x3e1387e0	0.14407301
189	0x3c6d0040	0.014465392
190	0xbe2718ab	-0.16318004
191	0xbc62fed2	-0.013854699
192	0x3e34f259	0.17670573
193	0x3e0dfe62	0.1386657
194	0xbebd3aae	-0.36958832
195	0xbed332bd	-0.41249648
196	0xbdae4a1e	-0.085102305
197	0xbc610430	-0.0137339085
198	0x3e8c6161	0.27418044
199	0x3e06bf52	0.1315892
200	0x3cc729ea	0.024311978
201	0xbde192ba	-0.11014314
202	0x3e6e5461	0.23274375
203	0x3c5a0cc2	0.013308706
204	0xbd7b3cbb	-0.061337214
205	0x3c9a4808	0.018833175
206	0x3db3cd5c	0.087794036
207	0xbcfd6ce4	-0.030935712
208	0x3e2d1fd0	0.16906667
209	0xbe5198c0	-0.20468426
210	0xbe892f5a	-0.2679394
211	0xbdc127da	-0.09431429
212	0xbe5cbc86	-0.21556291
213	0xbe96c4c2	-0.2944699
214	0xbe370598	-0.17873228
215	0xbc8913d6	-0.016733091
216	0x3ca4dccd	0.020124817
217	0xbb979219	-0.0046255705
218	0xbe850b7b	-0.2598532
219	0xbe806647	-0.2507803
220	0xbc2fe573	-0.010735857
221	0x3da981af	0.08276688
222	0xbe705667	-0.2347046
223	0xbe352b7d	-0.1769237
224	0xbe31d126	-0.1736494
225	0xbda0b19f	-0.078463785
226	0xbc9503d3	-0.0181903
227	0xbe7624e1	-0.24037506
228	0xbeb9b947	-0.36274168
229	0xbe8bd5bf	-0.27311513
230	0xbe595536	-0.21223912
231	0xbe037294	-0.12836677
232	0x3db6417b	0.08899208
233	0x3c788bbb	0.015170033
234	0xbe3f1ef1	-0.18664147
235	0xbe197a76	-0.14988121
236	0x3e646649	0.22304644
237	0xbea4e09e	-0.3220262
238	0x3dc6a1aa	0.09698804
239	0x3d2486c9	0.040167604
240	0xbd9c1616	-0.076214
241	0xbe5c1d38	-0.21495521
242	0x3d3e63b4	0.046481803
243	0xbd916e65	-0.07101134
244	0x3d9eddd3	0.07757153
245	0x3de2fa9f	0.110829584
246	0xbe16aabb	-0.14713566
247	0x3d870fed	0.065948345
248	0xbe56103d	-0.20904632
249	0x3e230d4e	0.15923044
250	0xbd99af3e	-0.07504128
251	0xbe13283e	-0.1437082
252	0xbd637f88	-0.055541545
253	0xbe35812f	-0.17725061
254	0xbe9d5ff8	-0.3073728
255	0xbdf41d0d	-0.119196035

attn.3.bias f4 [64]
0	0xbe2490fd	-0.16070934
1	0xbe1f6849	-0.15567125
2	0xbdaacbff	-0.083396904
3	0x3d53d98f	0.051721152
4	0xbde10fd8	-0.1098935
5	0x3d418ddb	0.047254425
6	0xbc9e46ee	-0.019320931
7	0x3d6daf74	0.058028653
8	0xbe533bc7	-0.20628272
9	0xbd7abb98	-0.06121406
10	0xbd922bcf	-0.07137262
11	0x3dbc12ad	0.091832496
12	0xbe35e9ee	-0.17765018
13	0xbe185b36	-0.14878544
14	0x3d1e449c	0.03863965
15	0xbdf2f30f	-0.11862766
16	0x3c0b3141	0.00849563
17	0x3d5f0f47	0.05445793
18	0x3ccb3e7d	0.02481007
19	0x3d66abd2	0.056316204
20	0xbec0290a	-0.3753131
21	0xbc0a7294	-0.008450169
22	0xbe3dabfa	-0.18522635
23	0xbda1eaa7	-0.079060845
24	0xbe9244c3	-0.28568086
25	0x3d7d236d	0.061801363
26	0xbe303279	-0.17206754
27	0xbea4cf0a	-0.32189208
28	0xbe354209	-0.17700972
29	0xbd631006	-0.055435203
30	0xbd7fdd2d	-0.06246679
31	0xbd7dca2f	-0.061960395
32	0x3e0ca5e8	0.13735163
33	0xbe6fea1f	-0.23429154
34	0x3d30f43d	0.043201674
35	0x3c1725f8	0.009225361
36	0xbe47e3ed	-0.1952054
37	0x3dd2370d	0.10264406
38	0x3dd7dbc0	0.10539961
39	0xbe6b8cde	-0.23002955
40	0xbe0d2f83	-0.13787656
41	0xbd24730c	-0.04014878
42	0xbce1e7a9	-0.027576284
43	0x3cab4e88	0.02091147
44	0xbe2546fc	-0.1614036
45	0x3c968c7b	0.018377533
46	0xbd8fe18e	-0.07025443
47	0x3d47b106	0.048752807
48	0xbd9ef079	-0.0776071
49	0xbda2c888	-0.079484046
50	0xbdc60495	-0.09668843
51	0x3d9e55e7	0.07731228
52	0xbe63e882	-0.22256663
53	0xbe6d9854	-0.2320264
54	0x3e055a1c	0.13022655
55	0xbd183561	-0.03716028
56	0xbe7ccf37	-0.24688421
57	0x3d860282	0.06543447
58	0xbe594cd2	-0.21220711
59	0xbd2941f6	-0.04132267
60	0xbe8c82df	-0.27443597
61	0xbe652a69	-0.2237946
62	0xbde581ef	-0.112064235
63	0xbdcbb6c9	-0.09946973

final_conv.weight f4 [1, 64, 3, 3]
0	0x3dd9387b	0.10606476
1	0x3ddb8cae	0.10720192
2	0x3dbe55e6	0.092937276
3	0xbdbc8126	-0.092043206
4	0xbcbe9308	-0.02326347
5	0xbdbde1e5	-0.092716016
6	0xbd4a3133	-0.049363326
7	0x3b0d66b2	0.0021576104
8	0xbdb94ce1	-0.090478666
9	0x3dafe1c0	0.0858798
10	0x3ddb746f	0.10715567
11	0x3d448611	0.04797942
12	0x3c8d0f6f	0.017219273
13	0x3d67ac34	0.05656071
14	0xbda40058	-0.08007878
15	0xbd97ad0c	-0.07406053
16	0xbce36ffa	-0.027763356
17	0xbd341de4	-0.04397382
18	0xbb7992b6	-0.0038081831
19	0xbd0b9fe7	-0.03408804
20	0xbd7c1620	-0.061544538
21	0x3d5b0cb9	0.05347893
22	0xbdb2fe0f	-0.08739864
23	0xbd40868a	-0.047003306
24	0x3d11d415	0.035602648
25	0xbdc61e51	-0.09673751
26	0xbb62118d	-0.0034495324
27	0xbdcab35b	-0.098974906
28	0xbd480e5a	-0.04884181
29	0xbd7f4cbb	-0.062329035
30	0x3a0b1ada	0.00053064304
31	0xbcb1a89b	-0.021686843
32	0x3bcc3cf6	0.006232853
33	0x3bacb426	0.005270499
34	0xbcddc541	-0.027071597
35	0xbd92476f	-0.07142531
36	0xbca18c89	-0.019720333
37	0x3ccb694b	0.024830481
38	0x3d6cd4ff	0.057820316
39	0x3c64e717	0.013971112
40	0x3d53435e	0.05157792
41	0x3dc5b81b	0.09654256
42	0x3d2bf432	0.04198093
43	0x3cede00b	0.029037496
44	0x3d0e91be	0.03480696
45	0x3ca6926f	0.020333497
46	0x3c504047	0.012710637
47	0xbe0db040	-0.13836765
48	0x3d164254	0.03668435
49	0x3d5fcdd5	0.054639656
50	0x3c15aa67	0.009134865
51	0x3c57d94e	0.013174368
52	0x3d634f21	0.055495385
53	0xbd9af6ee	-0.07566629
54	0xbc161c77	-0.00916206
55	0xbd19bef2	-0.037535615
56	0xbd1e15ac	-0.038594887
57	0x3c96be35	0.018401245
58	0x3cbdfd43	0.023192054
59	0x3d8e9358	0.06961697
60	0xbc8917f1	-0.016735049
61	0xbd8e4779	-0.06947226
62	0xbd9fc45b	-0.07801124
63	0x3da0df6e	0.07855116
64	0x3d1afd8c	0.037839457
65	0x36107c94	2.1530186e-06
66	0x3bb1ff05	0.005432012
67	0x3d4b6f81	0.049666885
68	0xbcc1701f	-0.023613034
69	0xbd8502be	-0.06494664
70	0xbd796767	-0.060889628
71	0xbcba0e1a	-0.022711802
72	0x3d14fd00	0.036374092
73	0x3dac35ed	0.08408723
74	0x3daed76d	0.08537183
75	0x3c862791	0.016376289
76	0x3cd7efa2	0.026359383
77	0x3d3adc78	0.04562041
78	0xbcc33cac	-0.023832642
79	0xbc943a92	-0.018094335
80	0x3d2e921e	0.042619817
81	0xbbbf0a6b	-0.0058300993
82	0x3dfcbc69	0.12340624
83	0x3d9b300c	0.075775236
84	0x3ce0f9f4	0.027462937
85	0xbe0f5cbc	-0.14000219
86	0xbd6758f6	-0.056481324
87	0xbb640a6d	-0.0034796253
88	0x3d47cab7	0.04877731
89	0x3d93e8ec	0.07222161
90	0x3d988f51	0.074492104
91	0x3d5d0481	0.053959373
92	0x3a2c1ab2	0.0006565257
93	0x3d629a62	0.055323012
94	0xbd10b4f3	-0.035328817
95	0xbd823570	-0.06357849
96	0x3d295095	0.041336615
97	0xbcbda7d1	-0.02315131
98	0xbdab7737	-0.08372348
99	0xbc20c9a7	-0.009813703
100	0x3d11dfa2	0.035613663
101	0x3d96173c	0.0732865
102	0x3cd4c171	0.025971146
103	0x3d2dc8b7	0.042427745
104	0x3c58ccbd	0.013232407
105	0xbdaf6caa	-0.08565648
106	0xbd71b036	-0.05900594
107	0xbdd66a79	-0.10469527
108	0xbda351b3	-0.07974567
109	0xbd634fb0	-0.055495918
110	0xbd187ad5	-0.037226517
111	0xbd6ba0aa	-0.057526268
112	0xbcf265ca	-0.029589552
113	0x3c41e5e8	0.011834599
114	0xbd8de889	-0.06929118
115	0x3d0e12bf	0.034685846
116	0x3c4a69ca	0.012354324
117	0x3da96afc	0.08272359
118	0x3b9c408c	0.004768437
119	0xbddacd35	-0.106836714
120	0x3db6588c	0.08903608
121	0x3d8a3e5b	0.067501746
122	0xbdbcef29	-0.09225304
123	0xbb7441e6	-0.0037270724
124	0xbd55b85a	-0.052177764
125	0x3c21749d	0.009854463
126	0xbcec890f	-0.028873948
127	0xbce3fe8b	-0.027831336
128	0xbd2e9ab7	-0.042628016
129	0xbce4e936	-0.027943235
130	0xbd0c8363	-0.034304988
131	0xbd26dd6c	-0.040738508
132	0xbd36e938	-0.04465601
133	0xbd41584f	-0.04720336
134	0xbd9bc544	-0.07605985
135	0xbdda3b95	-0.106558956
136	0xbdc6845e	-0.09693216
137	0xbd7a96ce	-0.061178975
138	0x3d7a4b06	0.061106704
139	0x3d8bbc72	0.068230525
140	0x3c24fc86	0.010069972
141	0x3dd02d16	0.101648495
142	0x3d0d1816	0.0344468
143	0x3c481a03	0.012213233
144	0xbd83a04d	-0.06427059
145	0xbcbbc1d2	-0.02291957
146	0xbc12b18a	-0.008953461
147	0x3d19e80e	0.03757482
148	0x3d3165be	0.04330992
149	0xbc6b4cda	-0.014361585
150	0x3d88ffd6	0.06689422
151	0x3cfcc9d2	0.030857954
152	0x3b92d80c	0.004481321
153	0xbccd31e3	-0.025048202
154	0xbcf71436	-0.030161005
155	0xbc6fbbab	-0.014632146
156	0xbd96f426	-0.07370786
157	0xbccc496b	-0.024937352
158	0x3c725ebf	0.014793097
159	0xbe1ed5fb	-0.15511315
160	0x3cdeee71	0.027213307
161	0x3da2d816	0.07951371
162	0xbd2476c1	-0.040152315
163	0xbd07a3ed	-0.033115316
164	0x3da188b1	0.078874
165	0xbcd0e847	-0.025501383
166	0xbd199b77	-0.03750178
167	0x3d8f93da	0.07010622
168	0xbd5d7f4e	-0.054076485
169	0xbd5fd3a6	-0.054645203
170	0x3c9fc8e6	0.019504976
171	0xbd860b09	-0.065450735
172	0xbab1b99f	-0.0013559348
173	0x3d8e3b75	0.06944934
174	0xbda1e011	-0.079040654
175	0x3d25589b	0.040367704
176	0x3d88fa1a	0.06688328
177	0x3b0b9afb	0.0021302092
178	0x3db602ee	0.088872775
179	0x3d560c92	0.05225808
180	0x3d3711e4	0.044694796
181	0x3d27e665	0.040991206
182	0x3ddbd493	0.10733905
183	0xbd3e1c79	-0.046413872
184	0x3d324ea7	0.04353204
185	0x3db71bdb	0.0894086
186	0xbb09776f	-0.002097573
187	0xbd11bfb8	-0.035583228
188	0xbdce0227	-0.10059004
189	0xbc279b09	-0.010229834
190	0xbdaab17a	-0.08334632
191	0xbd585968	-0.05281964
192	0xbd962925	-0.073320664
193	0xbdaa32b4	-0.08310452
194	0xbd854fd6	-0.06509368
195	0xbcb4764b	-0.022029063
196	0xbdc02c17	-0.093834095
197	0xbd7c0842	-0.061531313
198	0xbd2554cc	-0.04036407
199	0xbcc6136c	-0.024179183
200	0xbdb26d21	-0.08712221
201	0xbc4847b4	-0.012224127
202	0xbcab6322	-0.020921294
203	0xbdca3a61	-0.09874416
204	0x3b66ad45	0.0035198492
205	0x3d919904	0.071092635
206	0x3ce6d35a	0.028176952
207	0x3de566cb	0.11201247
208	0x3d890c04	0.06691745
209	0x3bfe8642	0.0077674696
210	0x3c225f77	0.009910456
211	0x3cbaaee3	0.02278847
212	0x3c3c5663	0.011495206
213	0xbd9b97e5	-0.07597331
214	0xbdaea25b	-0.085270606
215	0xbdb61677	-0.088910036
216	0xbb1302b3	-0.0022432029
217	0xbcc0f44c	-0.02355399
218	0xbd8f65b6	-0.07001822
219	0x3c9d33f3	0.01918981
220	0xbc52d3d9	-0.012867891
221	0xbd0b6f8b	-0.034041923
222	0xbc3b1ecd	-0.011420918
223	0xbb9383e6	-0.0045018075
224	0xbca70d1a	-0.02039199
225	0xbda4c041	-0.08044482
226	0xbce16153	-0.027512228
227	0x3d928ee3	0.0715616
228	0x3c8702fe	0.016480919
229	0x3d2cba2b	0.04216973
230	0x3d90d7fa	0.07072444
231	0x3d34feb2	0.04418821
232	0x3d34e1d1	0.044160668
233	0xbce6875d	-0.028140718
234	0xbcc47136	-0.023979764
235	0xbd04ba4c	-0.03240423
236	0xbd523631	-0.051321212
237	0x3cbe996c	0.023266517
238	0x3cb29a5d	0.021802122
239	0x3cd04b65	0.025426576
240	0x3b835b06	0.0040086536
241	0xbb94b975	-0.0045387098
242	0xbce2ea27	-0.027699543
243	0x3d86e2d5	0.065862335
244	0xbc4299db	-0.011877502
245	0x3d8c8048	0.06860405
246	0xbd5c125f	-0.053728458
247	0xbda9c485	-0.08289436
248	0xbd3352db	-0.04378019
249	0xbdd3c3dc	-0.103400916
250	0xbd65f047	-0.05613735
251	0xbd0d0bfe	-0.034435265
252	0x3d792f6b	0.060836237
253	0x3d84e55f	0.064890616
254	0x3d53fc3e	0.05175423
255	0x3c51534c	0.012776207
